.config/google-chrome/optimization_guide_model_store/20/E6DC4029A1E4B4C1/C64F4C3932CF52D5/model.tflite (tflite, 64852 bytes, 5 tensors)

arith.constant f4 [1, 64]
000000 88 b7 91 3e 8c bd 62 be 67 89 3b 3e bd 2c 8a bd
       0.28460336 -0.22142619 0.18314134 -0.067468144
000010 81 09 b0 3e 09 11 97 be 95 9f bb bd 27 8d 9b 3d
       0.3438225 -0.29505184 -0.09161297 0.07595282
000020 0b 17 83 be a8 0c 6d be b0 bb 43 3e f0 9a 35 be
       -0.25603518 -0.23149359 0.19114566 -0.17734885
000030 79 ef 87 be 5d 14 15 3e 0a ca 64 be 97 63 09 3e
       -0.2654989 0.14558549 -0.22342697 0.13416897
000040 dc f1 43 3e 69 3a 82 b9 2c 95 21 3f 89 6d 3b be
       0.19135231 -0.0002483905 0.63118243 -0.18303503
000050 45 1d 9c bd de c1 3f 3e 2f a9 dd 3e 76 e2 f2 bd
       -0.0762277 0.18726298 0.4329314 -0.118596
000060 f9 b4 77 be 48 2f 9e be 3c ea fe 3d 48 5e b9 bc
       -0.2419013 -0.30895448 0.124470204 -0.022627965
000070 ca 8f 48 3e 1c 55 ab 3e 7a 3c d0 bd cb ea 4b be
       0.19586101 0.3346337 -0.10167785 -0.19913785
000080 46 07 00 be fd db ca 3e 2b 86 a3 3e c2 de 8c be
       -0.12502775 0.39620963 0.319383 -0.275137
000090 3f d5 0f be 2d 1b 3f 3d 13 62 3f 3e 4d ac 3b 3e
       -0.1404619 0.046656776 0.18689756 0.18327446
0000a0 dc 1f 27 be bd c0 c8 3d 9d 44 9b 3e 6e 65 85 be
       -0.16320747 0.09802387 0.30325785 -0.26053947
0000b0 68 48 8a be b5 bb 5d be 31 80 88 bd d5 f3 80 3e
       -0.27008367 -0.21653636 -0.066650756 0.2518603
0000c0 4a 8b 0f be 96 19 05 be 35 5e 9e be 60 2f 81 be
       -0.14017978 -0.12998042 -0.3093125 -0.25231457
0000d0 9a 70 9d be 57 84 a5 3e 06 57 96 bd c2 1e 98 3e
       -0.3074997 0.3232753 -0.07340817 0.29710966
0000e0 35 83 82 be 9d e8 51 3e f7 5e 51 bd 0f 8f 54 be
       -0.25490728 0.20498891 -0.051115956 -0.20757698
0000f0 1d f6 98 be 55 b1 b0 3e f9 01 3e 3e e0 6d d8 3d
       -0.2987527 0.34510294 0.1855544 0.10567832

arith.constant1 f4 [64, 128]
000000 95 6e 45 3d c0 a3 7b bd 3c 8b 18 be 04 0f 36 bc
       0.048201162 -0.06143546 -0.14896864 -0.011111978
000010 1d 70 8f 3d 30 58 24 bc d6 c1 e6 bc 2a 1a c3 3d
       0.07003806 -0.010030791 -0.0281686 0.09526475
000020 33 f7 2b 3e 38 11 43 be 0f a0 fe 3d 3d b0 23 be
       0.16793518 -0.19049537 0.124328725 -0.15985198
000030 1e 66 06 be 50 c6 cf 3d 4b 02 09 be b7 53 eb bc
       -0.13124892 0.10145247 -0.13379781 -0.028726442
000040 4f 33 48 be c0 22 3c bd c8 45 d4 3b 9c 6d 1e 3e
       -0.19550823 -0.045931578 0.006478045 0.154715
000050 80 25 07 be 85 62 9e 3d 87 58 7e bd 14 a9 b9 bb
       -0.13197899 0.07733635 -0.062096145 -0.0056659076
000060 a2 51 04 3e f7 78 d4 3d d2 bd 53 3d 13 6e 1f be
       0.12921765 0.10374635 0.0516947 -0.15569334
000070 5f a9 e0 bd 20 90 02 be 2b 6b c8 3d 8a 2d 26 3e
       -0.10969805 -0.12750292 0.09786066 0.1622831
000080 cf 5a 5c be af 79 31 3e 16 21 26 3d 3c fb 39 3d
       -0.21519016 0.17331575 0.040558897 0.04540561
000090 80 bd 0b be e3 39 36 3e 4d 98 27 3d ab 87 1c 3c
       -0.13646507 0.1779552 0.04091673 0.00955383
0000a0 c2 16 c1 bd f1 ba 64 bd 2a e0 c0 3d c3 c9 23 bd
       -0.09428169 -0.055842344 0.09417756 -0.039987337
0000b0 72 6b 3f bd 7c 3f ff 3d 41 3d fb 3c bc 17 91 bd
       -0.046733327 0.124632806 0.030668857 -0.07084605
0000c0 c6 de 90 bc 65 6f 04 be 1b b6 48 be 41 28 e9 bb
       -0.017684352 -0.12933119 -0.19600718 -0.0071153943
0000d0 12 07 d2 3d 60 0e 0b 3d 6e 61 1c 3d 86 75 0e 3e
       0.10255255 0.033949256 0.038178854 0.13912019
0000e0 a5 55 c7 bd 37 8e b6 3d b1 30 4a bd 19 2d f8 3d
       -0.09733132 0.08913844 -0.049362842 0.12117977
0000f0 b6 62 17 be 06 df 2d bc 3c 20 ef bd 2b 2f 50 bd
       -0.14783749 -0.010612255 -0.1167607 -0.050826233
000100 a4 0a 5e be 24 2e 92 3d 6f eb a0 bc c2 94 87 3c
       -0.21683747 0.07137707 -0.019643513 0.016550425
000110 22 46 e5 bd b8 45 51 bd c5 84 57 be 29 f2 9b 3c
       -0.111950174 -0.05109188 -0.21046741 0.01903637
000120 bf 80 03 3e c9 4b cd bd 1c dd 52 bc 71 95 b0 3d
       0.12842081 -0.100242205 -0.012870099 0.08622254
000130 91 50 f5 bc a2 9f 37 bc a1 e7 12 3c 10 3d a4 bd
       -0.029945644 -0.011207493 0.008966357 -0.08019459
000140 92 68 0c be af 07 bf 3d f7 b0 e1 3d 25 95 0b 3e
       -0.13711765 0.093276374 0.110200815 0.13631113
000150 bb 8a 27 3c 60 5e f5 3d 43 1a 77 bd b0 74 0d be
       0.010225947 0.11980891 -0.06032778 -0.13814044
000160 ab fb 8b bd 94 f7 8d 3d d6 7c 99 3c 09 19 f1 bd
       -0.06835111 0.069319874 0.018736284 -0.11772353
000170 ca 32 9a bd 4e 36 7e 3d 8a 2a 35 be c2 9d 8e 3d
       -0.075292185 0.062063508 -0.17692009 0.06963684
000180 36 51 3d 3d 80 80 ff bc 0a 79 13 be bb ee c9 bc
       0.046220027 -0.031189203 -0.14401641 -0.024649968
000190 42 08 42 3e 22 83 bb 3d 4f cd 90 bd 9a 96 0a bd
       0.18948463 0.09155871 -0.070704095 -0.03383503
0001a0 cb 92 ca 3d fd 15 b3 3d 9f 8d 1a 3e 6f a6 03 3e
       0.0989128 0.08744428 0.15093087 0.12856458
0001b0 13 7d 16 be b6 83 01 be 98 b8 91 bc f1 10 4a 3d
       -0.1469615 -0.126479 -0.017788216 0.049332563
0001c0 d3 74 05 3e 39 32 0f 3e 31 6d d3 bd 83 c0 05 3d
       0.13032846 0.13984002 -0.10323561 0.032654297
0001d0 aa d8 d9 3d 45 83 a7 3d 3e 9d 39 3c ce 1e b0 bc
       0.106370285 0.081793346 0.011328993 -0.021499064
0001e0 a3 f2 33 3e bb 4f 85 bc b4 34 72 be 67 d0 e6 bd
       0.17573027 -0.01627337 -0.23652917 -0.11270218
0001f0 bc bc 97 bc b9 d9 3e be 72 b8 f2 3d 48 23 81 3b
       -0.018522613 -0.18637742 0.118515864 0.0039409734
000200 34 ae d6 3d af d7 c5 bd b0 9f 38 3e 1b df 24 be
       0.10482445 -0.09660279 0.18029666 -0.16100733
000210 c8 38 89 3d 56 61 9c bc 9a aa b0 ba cb 74 d1 bd
       0.06700283 -0.019089382 -0.0013478578 -0.102273546
000220 b9 ae 12 be 3a 25 87 bd 9d a0 05 be 94 36 06 bc
       -0.14324464 -0.06598897 -0.1304955 -0.008191723
000230 14 a0 85 bd 7a 18 98 bc ee cc fc bd 88 a7 de 3d
       -0.06524673 -0.018566359 -0.12343775 0.10871798
000240 2d 91 b7 bc 3d ad 45 bd b6 d6 d2 3c e9 38 bd bd
       -0.022408092 -0.048260916 0.025737148 -0.092393704
000250 48 40 84 bc d4 f8 43 bd 9c 43 a2 bd 04 d0 72 bc
       -0.016143933 -0.047844723 -0.07923052 -0.014820103
000260 aa ad 1e be d7 7d cc bd fa 87 c4 bd 64 29 36 3d
       -0.15495935 -0.099849395 -0.09596248 0.044473067
000270 38 53 83 3c bc dd fc 3d 3c 12 f6 bc 3f b6 08 3e
       0.016030893 0.1234698 -0.030037992 0.13350771
000280 24 d6 69 bd 30 b1 25 3e 6c f7 08 bc 0f b4 05 be
       -0.057088986 0.16180873 -0.008359771 -0.13056968
000290 1d a5 85 3d be c6 11 be 2e 7f 87 3d 03 74 f6 bd
       0.065256335 -0.1423597 0.066160545 -0.12033846
0002a0 6e 40 25 be 89 4c 42 bd 2a ce eb bd 7d d2 15 3e
       -0.16137859 -0.04743627 -0.11513932 0.14631076
0002b0 db 9c 04 be 65 5a 2b be 1f 7d 14 3e df cb 27 be
       -0.1295046 -0.16733702 0.14500855 -0.16386364
0002c0 e8 0e ba bc 83 06 4f 3c 0c 37 d8 3d f0 5f 33 3c
       -0.022712186 0.01263583 0.10557374 0.010948166
0002d0 4e 6d 0a be cf f3 3c be fb f6 09 be ac 7f dd 3d
       -0.13518259 -0.1845238 -0.13473122 0.10815367
0002e0 cf 07 44 be b0 e0 2e bd 58 ae f5 3d 94 8d fa 3d
       -0.19143604 -0.042694747 0.11996144 0.12234035
0002f0 98 cf 05 be c2 e7 d7 bd 95 9f c0 bd fd cb 12 3d
       -0.13067472 -0.10542251 -0.09405438 0.03583907
000300 c8 3e cb 3d 38 7d 23 be 5e 9a 6b bd 21 8a 44 3d
       0.09924084 -0.15965736 -0.057520263 0.047983292
000310 e7 18 20 be e3 e5 2b be 5e 3e e0 bd 72 d2 20 bd
       -0.156345 -0.16786914 -0.109493956 -0.039263196
000320 9e 26 7d 3d bd 45 90 bd e2 bd 16 be 25 33 07 be
       0.061804406 -0.070445515 -0.14720872 -0.13203104
000330 07 52 17 be 85 0b 2d 3d d2 01 19 bc d3 b5 72 bd
       -0.14777385 0.042247314 -0.009338813 -0.059255432
000340 e8 83 f1 3d 3f 10 5c bd d7 9d 4f 3d fb 8c c1 3b
       0.11792737 -0.05372643 0.050687637 0.0059066988
000350 96 70 74 bd 45 cd ef 3d 71 d3 d4 3d 5b 2d 16 3e
       -0.059677683 0.11709074 0.10391892 0.14665739
000360 ec fd c4 bd 5f 58 2e 3e 68 0c 13 be e6 27 96 3d
       -0.09618744 0.17025898 -0.14360201 0.07331829
000370 12 0f 43 3d 78 ea bc bc ca e4 fd bd 54 bc 26 be
       0.047621794 -0.023061022 -0.12397154 -0.16282779
000380 eb d2 f7 3d 21 45 c1 bd 74 84 12 be f8 d7 ff 3d
       0.12100776 -0.094370134 -0.1430834 0.12492365
000390 5e 2a ca bc 9e 1a a8 bd aa ed 3b bd 1d e7 03 bd
       -0.024678405 -0.08208202 -0.04588095 -0.03220283
0003a0 0c 45 66 3d 88 e3 ac bd f0 05 89 bd 1c 98 84 3d
       0.056218192 -0.08441836 -0.066905856 0.06474325
0003b0 ec 67 c6 bd ad 0a 1c be 36 2a 87 3d 27 04 0d 3d
       -0.0968779 -0.15238447 0.06599848 0.034427788
0003c0 3d 34 79 3d d5 94 0a be 67 3d ec bd d5 51 0f be
       0.060840834 -0.13533337 -0.11535149 -0.1399606
0003d0 c7 fa f9 bd 52 69 06 be af 73 87 bd 7f e9 66 3c
       -0.12206035 -0.13126114 -0.06613862 0.014093756
0003e0 8d b9 69 3d 1a ca 5a bd f4 bf 1e bd 2d 82 06 3e
       0.05706172 -0.053415395 -0.03875728 0.13135596
0003f0 50 af 97 bb 9b 9a c0 3d 8a 19 3d 3e 68 87 4e 3c
       -0.004629053 0.09404489 0.18466774 0.012605526

arith.constant2 f4 [128, 12]
000000 56 1c 6d be 33 7b 36 bd 31 74 d1 3d 01 12 05 be
       -0.2315534 -0.044551086 0.1022724 -0.12995149
000010 6f b1 82 bd a9 5d e6 bd 8d e5 17 be 25 73 ba bc
       -0.06381499 -0.11248333 -0.1483366 -0.022759983
000020 80 71 bb bd af c1 0a 3e 95 84 80 bd 56 bc 72 3e
       -0.09152508 0.13550447 -0.06275288 0.23704657
000030 9c 79 d7 3d 2d 9f e4 3d 21 2c 3e be c2 9b 03 be
       0.10521242 0.11163173 -0.18571521 -0.12852386
000040 7e 00 28 be b5 4a 83 bd b3 ae 62 bd 85 e7 13 3e
       -0.16406438 -0.064107336 -0.055342387 0.14443786
000050 4f 92 84 bd e5 c1 55 3e 08 3b 43 3d 3a c5 99 bd
       -0.06473219 0.20874746 0.04766372 -0.07508321
000060 12 65 66 bd c2 a2 a1 bd 55 a3 ee 3d 78 92 4b 3d
       -0.056248732 -0.07892372 0.11652247 0.04970023
000070 7b ba 94 3c 70 aa 40 3e 50 46 0b be 99 be 04 3c
       0.018155327 0.18815017 -0.13601041 0.008102083
000080 d2 5a 17 3d 54 0a 60 3d e3 e5 30 3e c8 56 4f be
       0.036951847 0.05469735 0.17275195 -0.20247948
000090 1c 63 dc bd 64 5b 1d 3e 83 06 aa bd 4d 96 eb bd
       -0.10761091 0.15366894 -0.08302023 -0.11503277
0000a0 fc ab 3c 3e a1 a5 9e bd ae 8f 61 3e 80 e5 12 3e
       0.18424982 -0.07746435 0.22027466 0.1434536
0000b0 38 de 13 3e ac 2a de bd 1c c6 2e be 9a c6 f1 39
       0.14440238 -0.10847983 -0.1706776 0.00046115072
0000c0 69 10 9d 3d ab 83 78 3c e5 19 4b 3e 31 7c 45 be
       0.076691456 0.015168111 0.19834097 -0.19285657
0000d0 26 6e 97 3c 94 17 1f bd 12 f8 44 be e5 2c 21 3c
       0.01848514 -0.038840845 -0.19235256 0.009837364
0000e0 81 64 1e 3e 3f 6a ac bd 02 51 dd 3c 5d ff 42 be
       0.15468027 -0.08418702 0.027016167 -0.19042726
0000f0 9d 5e 0b be ea 33 3f 3e 66 41 f1 3d 87 49 2c 3c
       -0.13610311 0.18672147 0.11780052 0.010515577
000100 f2 b7 96 bd 02 83 f9 3d d6 16 a2 3d 1b 87 79 3e
       -0.073593035 0.12183191 0.07914512 0.24367945
000110 5c 86 1a 3e ec d7 35 3e 18 10 3d be ab eb bf bd
       0.15090317 0.17758149 -0.1846317 -0.09371122
000120 06 c4 29 3e fa 4a a1 bd fc f4 66 bd 6e d6 d8 3d
       0.16578683 -0.07875629 -0.05638598 0.10587774
000130 99 84 e1 bc 14 cc 40 3e 72 c1 39 bd ea cd 53 bd
       -0.027529048 0.1882785 -0.0453505 -0.051710047
000140 67 1e 8c bb d7 17 20 be c3 bb 33 bd d5 36 88 bb
       -0.004276085 -0.15634094 -0.043880235 -0.004156927
000150 27 04 5c bd e2 de 8d bd 49 9b af 3c 09 a2 b1 3d
       -0.053714897 -0.06927277 0.02143635 0.08673484
000160 a2 a7 1d 3d 5d 75 30 3d 98 bc 5a 3d 68 16 17 3d
       0.038489945 0.043080676 0.053402513 0.036886603
000170 d1 69 0b bd 6c a5 17 be 3c fb f1 3b 2f cf 6a 3d
       -0.03403646 -0.14809197 0.007384686 0.057326492
000180 9f 88 46 3e 15 56 d9 bc 3d 17 51 3d 40 72 25 bc
       0.19388054 -0.026530305 0.051047552 -0.01009804
000190 9e 17 c5 bc 3c d4 e8 3c e1 9d ad 3d 47 c3 40 3e
       -0.024059113 0.028421514 0.08477379 0.18824492
0001a0 9d f9 01 3e 9b 25 20 3e 19 e6 3b be 29 89 7c 3e
       0.12692876 0.15639345 -0.18349494 0.24661697
0001b0 e6 14 24 3e 86 49 61 3d 00 40 c9 3d eb 5d 35 be
       0.16023597 0.055001758 0.0982666 -0.17711608
0001c0 62 2a c6 bd 47 4b de bd 31 6b 35 3d 37 24 93 3d
       -0.09676053 -0.10854202 0.04429168 0.07184642
0001d0 54 35 90 3d c7 b8 51 be 94 87 7f 3e 6d 9a 95 be
       0.070414215 -0.20480643 0.24954063 -0.2921938
0001e0 f5 35 8d 3d 5f 90 97 3d a8 89 fc 3d 6a 20 d7 bd
       0.06895057 0.074005835 0.12330943 -0.10504229
0001f0 92 28 97 3d 85 ce 0a be ee f3 13 be 54 ee b8 3a
       0.07380785 -0.13555343 -0.1444852 0.0014109113
000200 5a 21 8f bd 9b 3e eb 3d 38 b7 28 3e 7e 85 d4 bd
       -0.06988783 0.114865504 0.16476142 -0.10377024
000210 83 98 40 bc bb 10 80 3d 46 1c f9 3d aa a7 b0 bd
       -0.011755112 0.06253191 0.12163596 -0.086257294
000220 d8 56 20 be 8d 6e fb bc 8b 37 1a be 74 6c 56 3d
       -0.15658128 -0.030692363 -0.1506025 0.052349523
000230 b4 0c 02 3d e7 02 5d be 4b 1b 1f 3e 3d a6 b2 3b
       0.031750396 -0.21583138 0.15537755 0.005451946
000240 00 ab 0e be 58 4c 86 be ff 90 4a 3e 53 7c 27 3e
       -0.13932419 -0.2623012 0.19781874 0.1635602
000250 8d 61 3e be a3 37 14 be ed 0e 18 3e a3 e0 30 3e
       -0.185919 -0.14474349 0.14849444 0.17273192
000260 ff aa 56 3d eb bc ae bd 0e d9 df 3d 84 70 34 be
       0.05240917 -0.08532127 0.10930072 -0.17621046
000270 9b 12 f7 bc 88 8e c9 3d 9d f3 84 3e fa 53 84 bd
       -0.030160239 0.09841639 0.25967112 -0.0646133
000280 ea 20 73 bc ae 35 9a 3d 64 11 05 be 96 4b 91 bd
       -0.01483939 0.0752977 -0.12994915 -0.07094495
000290 b2 cf 94 bd b7 0b 0b 3e 15 46 2e 3d 91 6e 03 be
       -0.07266177 0.13578688 0.042547304 -0.12835146
0002a0 b5 86 45 3d 6e 68 1c 3e 6f 73 0d be cd 93 ae bc
       0.04822417 0.15274212 -0.13813566 -0.021310711
0002b0 bb e6 57 bd d7 60 ee bd 63 29 80 bd ca 77 e6 bd
       -0.052710276 -0.116395645 -0.06257894 -0.11253317
0002c0 cb b1 a7 3d b9 09 90 3d 13 8e d2 3c d1 8c 3d 3c
       0.08188208 0.070331044 0.025702512 0.011569218
0002d0 40 9a 7b be 10 3c 0c be 15 83 39 be 5e 07 01 be
       -0.2457056 -0.13694787 -0.1811641 -0.12600467
0002e0 5a d4 d6 3d bc 1b ff 3d 68 ab 3a be e2 c3 2d bd
       0.104897216 0.12456462 -0.18229449 -0.042423137
0002f0 e3 59 11 3e 88 78 70 3d 7d 36 da bc 40 31 a3 3e
       0.14194445 0.058708698 -0.02663731 0.31873512
000300 50 e0 1a be cd 54 50 be a4 5b 13 3e 36 05 4f be
       -0.15124631 -0.20344849 0.14390427 -0.20216832
000310 b6 cb 79 3c 49 ac a6 3d 04 71 6d be e5 6f 29 3e
       0.015246322 0.081383295 -0.23187643 0.1654659
000320 f7 9b 24 3d c1 98 39 3e 13 a9 40 bd dd ee 39 3d
       0.040187802 0.18124677 -0.04703624 0.045393813
000330 34 88 11 3e 49 c9 48 be 8e cc 80 bd 94 03 0d 3e
       0.14212114 -0.19608034 -0.06289016 0.13770896
000340 4d 02 ab bd a5 f9 46 bc 41 7b d1 bc bf 5d 02 be
       -0.08350048 -0.012144481 -0.025571467 -0.12731074
000350 87 9b 74 3d 29 7e 7c bd 7b 82 c2 3d 6b cd 33 bd
       0.059718635 -0.061643753 0.094975434 -0.043897074
000360 de 00 c9 3d 44 a8 79 3d 89 ea 35 3c 53 0b 9d bd
       0.098146185 0.060951486 0.011103281 -0.076681755
000370 3a 15 1d be e1 a3 13 bd bf 21 18 be 13 79 bd 3c
       -0.15340129 -0.03604496 -0.14856623 0.023129022
000380 d3 e7 93 3d cc b1 13 be 3d 91 f6 bc 45 4c 54 3e
       0.07221951 -0.14423293 -0.030098552 0.2073222
000390 49 b8 f9 bd d8 59 61 be e0 17 81 be f6 38 97 bd
       -0.12193353 -0.22006929 -0.25213528 -0.07383911
0003a0 5b 0f d3 3c 59 c1 cd bd 6b 26 21 be 9f a4 9b 3d
       0.025764158 -0.10046644 -0.15737312 0.07599758
0003b0 07 37 72 bd d5 7f bd ba 7a 98 97 bb f7 8e 3f be
       -0.05913451 -0.0014457653 -0.004626331 -0.1870688
0003c0 b1 d4 25 3e 8a e4 22 3c e7 81 a3 3d 9a 37 3f bd
       0.16194417 0.009942183 0.07983761 -0.046683885
0003d0 00 0b f0 3d fc 30 25 3d a0 83 df 3d 11 04 3c 3d
       0.11720848 0.04032992 0.10913777 0.045902316
0003e0 f2 0d 0d 3e b3 fb a4 bc b3 92 55 be e9 98 0e bd
       0.13774851 -0.02013955 -0.20856743 -0.034813795
0003f0 36 88 41 3e 8f e5 86 bd ff 04 1a be 22 6c 0a be
       0.18899617 -0.065867536 -0.15040968 -0.13517812

arith.constant29 f4 [64]
000000 67 08 4b 3d 27 59 40 3c 04 6c 10 bd 98 95 02 3d
       0.04956856 0.011740006 -0.03525926 0.031880945
000010 f7 26 7d bd 2b 23 2c 3c 9f 51 34 bc 21 72 cb 3b
       -0.061804738 0.010506432 -0.011005788 0.0062086736
000020 69 cb 27 3c fa e3 20 bd e4 f5 6d bd 13 c9 73 bd
       0.010241368 -0.039279915 -0.058095828 -0.05951793
000030 f5 97 36 bb 9b d8 ca 3b 31 e7 8f bd 28 bd e4 3c
       -0.002786157 0.006190372 -0.07026518 0.027922228
000040 e4 c1 29 be 92 ef 8e ba b7 b7 24 be 3b a8 2c bb
       -0.1657787 -0.0010905138 -0.16085707 -0.002634539
000050 88 27 89 bd 66 ae b5 3d 62 58 cd 3d 87 5b 44 bd
       -0.06696993 0.088711545 0.10026623 -0.04793885
000060 f9 c7 36 bd a2 b8 0b be 68 17 7f bd ab 90 0a bd
       -0.044624303 -0.1364465 -0.06227818 -0.033829372
000070 cb 76 80 bd 9f be a8 3d 8e 81 78 bc 44 0a 57 3c
       -0.06272658 0.08239483 -0.015167607 0.013125006
000080 70 cd 8d bb 39 61 4c 3d da 36 26 bd c7 c1 f2 bc
       -0.0043274686 0.049897406 -0.040579654 -0.029633416
000090 b1 a7 29 bd fe 70 18 bd 43 9f 1f 3d d0 92 80 3d
       -0.04141969 -0.037217133 0.038970243 0.06278002
0000a0 e2 99 0b bd 31 5b 94 3d ea af 3d 3c e3 82 97 38
       -0.0340823 0.07243956 0.011577586 7.224621e-05
0000b0 6b 13 a6 bd 3b 35 86 bc 0a 18 db bc 7a af 2e 3c
       -0.081091724 -0.016382804 -0.026744861 0.010661954
0000c0 50 f8 4f bd 54 04 9e bc 77 42 63 bd c3 aa 27 bd
       -0.05077392 -0.019289173 -0.055483308 -0.040934335
0000d0 68 b0 de 3c d7 8a bb 3d d3 fe 39 bd 42 dc 9e b9
       0.027183726 0.09157341 -0.045409035 -0.00030300213
0000e0 5f 1a 31 bd 0b b3 7a 3d 45 8f 16 bd 87 39 97 bd
       -0.04323804 0.061205905 -0.036757726 -0.07384019
0000f0 44 07 ad bc 5d c1 91 3d c9 00 3b 3d 4e d1 12 bb
       -0.021121629 0.07116959 0.045655046 -0.0022402587

arith.constant30 f4 [128]
000000 cc 93 ea 3c 86 7a 87 bd 3c 4e 6f 3d 33 8d 90 bd
       0.028634928 -0.06615166 0.05842422 -0.070581816
000010 db 2c 21 3c 6c 5c 81 bd 3a 6f 39 bd a2 23 17 bd
       0.0098373545 -0.06316456 -0.04527209 -0.036899216
000020 02 51 7c bd 83 a1 0f 3d f3 58 20 3d b6 9a e0 bc
       -0.061600693 0.03506614 0.03914733 -0.027417522
000030 12 06 c4 bc 17 d0 7c bd 69 de 18 bd e7 0f 83 bd
       -0.023928676 -0.061721887 -0.03732148 -0.063995175
000040 ed 1f ca bc 5c f3 a8 bc 1e f3 5f 3d f2 dc e0 3c
       -0.024673427 -0.020623855 0.054675214 0.027449105
000050 ef 57 03 3c 53 09 9f 3c 92 56 29 3d 2a 57 23 bd
       0.0080165705 0.019413626 0.041342326 -0.039878048
000060 f8 20 2b bd 6b 14 ca bd d7 9a 28 bd bc 88 12 bb
       -0.04177949 -0.09867176 -0.04116329 -0.0022359332
000070 46 d2 cd bc eb b6 e7 3c cf 02 87 3c a4 50 a1 3d
       -0.02512468 0.028285464 0.016480831 0.07876709
000080 de cb a2 3c 60 31 ac bc 2a 80 a3 bd 6b 0b 4c 3a
       0.019872602 -0.021019638 -0.0798343 0.0007783684
000090 6b a0 91 3d e1 86 93 3c 6b 5d 02 bd bc 1a 29 bd
       0.071106754 0.018008651 -0.03182737 -0.04128526
0000a0 5c 3f ab 37 2c 93 0a bd 5f dd 82 3d f0 84 08 bd
       2.0414293e-05 -0.03383176 0.063898794 -0.033329904
0000b0 b8 e6 0f 3c e5 8c 70 ba 9f 2e 5c 3d fc ec 42 3c
       0.008783035 -0.00091762684 0.0537554 0.011897322
0000c0 45 d0 4b 3c 4a ba 32 3d ce d4 b2 3a f3 cb 6d 3d
       0.012439792 0.04363469 0.0013643743 0.05805583
0000d0 7e f4 26 3c 43 ad 92 bc 9c 93 b0 3c 35 a8 f4 bc
       0.010190127 -0.017904883 0.02155476 -0.029865364
0000e0 f7 a3 2e be 13 1b e4 bc fb 5b 8c bc a1 cf 9a b8
       -0.17054735 -0.027844941 -0.017133703 -7.381966e-05
0000f0 1f 79 02 be ba 52 d7 bc 65 ff 7c 3d 0b e4 c3 bc
       -0.12741517 -0.026284564 0.061767 -0.02391245
000100 eb de ee bd c3 24 da bb fd 6f b1 ba bd 49 e3 3d
       -0.11663612 -0.0066572144 -0.0013537403 0.11098049
000110 49 1e d1 3c c6 1a 54 bc d9 fb 63 bc 87 00 bd bc
       0.025527136 -0.012945836 -0.013915026 -0.02307154
000120 32 92 9f 3b e2 6e 44 3d a9 ef 86 3d e4 78 bf 3b
       0.0048697228 0.04795731 0.0658868 0.0058432687
000130 de a9 47 bd c5 19 bf bc a9 43 19 3d b2 a2 1f 3d
       -0.048745982 -0.023327718 0.03741804 0.038973518
000140 ed 3b ef 3b 70 70 df bb 8c dd 15 bd 23 1d 0e bd
       0.007300845 -0.0068188235 -0.036588237 -0.034695756
000150 64 ba d6 bc 65 fa 9c bc 37 8f c9 3d bc 66 41 3d
       -0.026211925 -0.019162366 0.09841769 0.047217116
000160 fd 73 ca bb fd 5b fe bd d7 61 d5 bc ec c3 a9 3d
       -0.0061783777 -0.12419889 -0.02604763 0.08289322
000170 0f 67 8d bd 93 91 1b bd b5 78 12 3d f6 3b cf 3c
       -0.069044225 -0.037980627 0.035759646 0.025297146
000180 a6 a6 6a bb 45 06 a5 bd 0c 33 88 bd 42 f7 4b bd
       -0.0035804897 -0.080578364 -0.066503614 -0.04979635
000190 e2 1b 6b bd d7 66 f8 bc 1c 98 87 bd 7d 5a 5f bd
       -0.057399638 -0.030322475 -0.066208094 -0.054529656
0001a0 59 bd 6a bd e8 38 10 be 17 23 4e 3d 24 0d ba bc
       -0.057309482 -0.14084208 0.050326433 -0.022711344
0001b0 72 d2 03 be 57 01 0d 3d ce f3 4d 3c 7a 11 40 3c
       -0.12873247 0.034425106 0.012570335 0.011722917
0001c0 fb e4 c8 3d a1 f5 a3 3c 11 5b 37 3d f3 ff 8e bd
       0.098092996 0.020014586 0.044764582 -0.06982412
0001d0 67 06 81 3d 23 ba ee 3c 93 f9 39 bd 1b 71 8a bc
       0.06300049 0.029141491 -0.04540403 -0.016899636
0001e0 92 32 df 3c 7d 23 91 bd 28 66 75 3d 7a 47 d4 bd
       0.027245793 -0.07086847 0.059911877 -0.103651956
0001f0 0b a7 73 3d e3 3c 3d be 21 a5 eb bb 0f 02 8e bc
       0.059485476 -0.18480258 -0.0071913158 -0.017334966
